saved_models/pi3_scenario3.pth (torch, 15430 bytes, 6 tensors)

rnn_cell.pbm_weight f4 [1, 50]
0	0xbeca0134	-0.39454043
1	0x40199c34	2.400159
2	0x3f4af80d	0.79284745
3	0xbeeff7e5	-0.46868816
4	0x3f13399f	0.575098
5	0x3f1c07fc	0.60949683
6	0xbf0e92ae	-0.55692565
7	0xbed5ac24	-0.41732895
8	0xbd322a10	-0.043497145
9	0xbf36e6c5	-0.71445876
10	0xbfdc6adc	-1.7220111
11	0xbf3b8b05	-0.73259
12	0xbf232c8c	-0.6373985
13	0x3f680574	0.9063332
14	0xbfd3bbaf	-1.6541651
15	0xbddc8839	-0.1076817
16	0xbf82df1e	-1.022434
17	0xbeedf777	-0.46477863
18	0xc049bedf	-3.1522748
19	0x40145cc2	2.3181615
20	0x3f0bba81	0.5458146
21	0x3f1a20ff	0.602066
22	0xbf54b01e	-0.83081234
23	0x3d3de86e	0.04636424
24	0x3e9909ba	0.29890233
25	0xbf764b1a	-0.96208346
26	0xbcbbbcbf	-0.02291715
27	0x3dd9887f	0.10621738
28	0x3d817dab	0.063227974
29	0xbcf3437c	-0.029695265
30	0x3edaf510	0.42765093
31	0xbe998cdb	-0.29990277
32	0x3e348405	0.17628486
33	0xbfccd3dc	-1.6002154
34	0x3f9b86b1	1.215048
35	0x3f4af218	0.79275656
36	0x3ebcc564	0.36869347
37	0x3f598b24	0.84977937
38	0x3f1830d6	0.5944952
39	0xbe3c6833	-0.18399124
40	0x3f3c0618	0.734468
41	0x3ca1fd81	0.0197742
42	0xbf3b9067	-0.73267215
43	0x3f68aa62	0.90884984
44	0x4002dea1	2.0448382
45	0xbf25cad1	-0.647626
46	0xbf4bd7dc	-0.7962625
47	0xbd7827b2	-0.06058473
48	0x3e6834b7	0.22676359
49	0x3ec15ac1	0.37764552

rnn_cell.W_ih.weight f4 [50, 8]
0	0xbdae5daf	-0.085139625
1	0x3e906eb5	0.28209463
2	0xbe5bce30	-0.21465373
3	0x3e2f03c5	0.17091282
4	0x3e943bce	0.28951877
5	0xbb8ad29e	-0.0042365333
6	0x3d6e80fa	0.05822847
7	0xbe7adc39	-0.24498071
8	0xbe112a3d	-0.14176269
9	0xbe92243b	-0.28543267
10	0x3e68894b	0.22708623
11	0xbdde33b9	-0.10849709
12	0x3e595c48	0.21226609
13	0x3e8fafd8	0.28063846
14	0x3e205718	0.15658224
15	0xb98d7ea8	-0.00026987982
16	0x3e842627	0.25810358
17	0xbe8613dc	-0.26187027
18	0x3e0bc216	0.13648257
19	0xbea8d700	-0.32976532
20	0xbe79778b	-0.24362008
21	0xbe804724	-0.25054276
22	0x3e6b97f4	0.23007184
23	0x3e75fc82	0.24022105
24	0xbdadd1e7	-0.08487301
25	0xbeaab500	-0.33341217
26	0xbd69c3c1	-0.05707145
27	0xbe968dfc	-0.294052
28	0xbe942b9b	-0.28939518
29	0x3e9ea8e7	0.30988237
30	0xbbbe3858	-0.0058050565
31	0x3e816ae7	0.25276873
32	0xbe5c4938	-0.21512306
33	0x3d5fcfe1	0.05464161
34	0xbce3e232	-0.02781782
35	0xbea4c482	-0.32181174
36	0x3e8bff20	0.27343082
37	0xbe06ae0e	-0.13152334
38	0x3e4daa8d	0.20084591
39	0x3d21b00b	0.03947453
40	0x3d6b2cbd	0.057415713
41	0xbdd79c2d	-0.10527835
42	0x3ea67f14	0.32518828
43	0x3e729f9b	0.23693697
44	0xbd48d65b	-0.04903255
45	0xbe8860eb	-0.26636443
46	0xbe9c2eb4	-0.30504382
47	0x3e9c1e16	0.30491704
48	0xbddde5d2	-0.1083485
49	0xbe2ed2c5	-0.1707259
50	0xbe8061ff	-0.25074765
51	0x3e60845c	0.21925491
52	0xbe050b0b	-0.12992494
53	0xbe610b05	-0.2197686
54	0x3e528e01	0.20561983
55	0x3c2bce01	0.010486127
56	0x3c249913	0.010046261
57	0xbd1543c5	-0.036441583
58	0xbe789de3	-0.24278979
59	0x3d825f5d	0.06365845
60	0xbe8de91a	-0.27716905
61	0x3dc17bf1	0.09447468
62	0x3e3fee48	0.18743241
63	0x3e67c424	0.22633415
64	0x3e1f1d0d	0.15538426
65	0xbe037d59	-0.12840785
66	0x3e25e5f4	0.16201001
67	0x3e169c9b	0.14708178
68	0xbd80789d	-0.06273005
69	0xbc8b12a9	-0.016976671
70	0xbe933da0	-0.28757954
71	0x3bbc944a	0.005754982
72	0x3b80a044	0.003925355
73	0x3e62cc29	0.22148193
74	0x3eae4920	0.34040165
75	0xbeb5a027	-0.3547375
76	0xbe8fef44	-0.28112233
77	0xbd1c29bd	-0.038125742
78	0xbd3ca2c9	-0.04605368
79	0x3e4f2e84	0.20232588
80	0xbd9b6192	-0.075869694
81	0xbe3f82eb	-0.18702285
82	0x3d354a64	0.044260398
83	0xbb226934	-0.0024781944
84	0xbe2af125	-0.16693552
85	0x3e23c441	0.15992834
86	0x3e80c6a0	0.2515154
87	0xbe22f03e	-0.15911958
88	0x3eaab5e5	0.333419
89	0xbe9eb2af	-0.309957
90	0xbe0b5a17	-0.13608585
91	0x3e38f348	0.18061554
92	0x3e9c0596	0.30473012
93	0xbe959363	-0.2921401
94	0xbe624818	-0.22097814
95	0xbe4fd7e9	-0.20297207
96	0x3d9ce96c	0.07661709
97	0xbdfbe880	-0.12300205
98	0x3e9794a8	0.29605603
99	0xbde13037	-0.109955244
100	0xbd676352	-0.056491204
101	0x3df5ab64	0.11995581
102	0x3ea1f7cc	0.31634367
103	0xbe8df02b	-0.27722296
104	0xbd17b6cb	-0.03703956
105	0xbe94b0b1	-0.29041055
106	0x3d89edc6	0.06734805
107	0xbe175c34	-0.14781266
108	0x3e5647e4	0.20925862
109	0xbe5048da	-0.2034029
110	0x3e658c36	0.22416767
111	0x3e927c7f	0.28610608
112	0xbeb2c1e7	-0.3491356
113	0xbe978cd4	-0.2959963
114	0xbe6fa493	-0.23402624
115	0x3e9a4346	0.3012945
116	0xbd139cf2	-0.036038347
117	0x3e868ad3	0.2627779
118	0x3e2ba933	0.16763763
119	0xbea770e5	-0.3270332
120	0x3e8e321a	0.277726
121	0x3e700600	0.23439789
122	0x3d33f0f2	0.043930955
123	0xbe968ecd	-0.29405823
124	0xbe33e28e	-0.17566893
125	0xbe41506c	-0.18878335
126	0x3ea99d00	0.33127594
127	0xbe6a9292	-0.22907475
128	0xbd09403f	-0.033508535
129	0x3d215f44	0.039397493
130	0x3e0fcfdb	0.14044134
131	0x3ca3a21a	0.019974757
132	0x3e6ef276	0.23334679
133	0xbe32c6c8	-0.17458642
134	0x3daedf78	0.08538717
135	0x3db73a1c	0.0894663
136	0x3e98eab7	0.29866573
137	0xbc871637	-0.016490085
138	0xbe17919d	-0.14801641
139	0x3e08570a	0.13314453
140	0x3e884f49	0.2662299
141	0x3e745b5c	0.23862976
142	0xbe927b8a	-0.28609878
143	0xbe44ee45	-0.19231518
144	0x3e3ce064	0.18444973
145	0xbe4919b0	-0.19638705
146	0xbe0eb3d4	-0.13935786
147	0x3eb2ce41	0.34922984
148	0xbe21cb42	-0.15800193
149	0x3e43087c	0.19046205
150	0xbe1c4d92	-0.15263966
151	0x3bb71fb8	0.005588498
152	0x3e70f54f	0.23531078
153	0xbe99af7e	-0.30016702
154	0xbe7b9508	-0.2456857
155	0x3dfaefe7	0.12252789
156	0xbea0368d	-0.3129162
157	0x3eae9641	0.3409901
158	0x3e9347f0	0.2876582
159	0xbea3b084	-0.31970608
160	0xbe3ca835	-0.18423541
161	0x3df16fc6	0.11788897
162	0x3e73ee00	0.23821259
163	0xbd5b6f35	-0.053572852
164	0x3e157be0	0.14598036
165	0xbe6d8335	-0.23194583
166	0x3e957fc3	0.29199037
167	0x3e773625	0.24141748
168	0x3e77c14a	0.24194828
169	0xbe48fefe	-0.19628522
170	0x3d8aa34c	0.06769428
171	0xbe682ada	-0.22672597
172	0xbe45cb16	-0.19315752
173	0xbe53ff40	-0.20702839
174	0x3dfa60ef	0.1222552
175	0xbdc4df6c	-0.09612927
176	0xbe56011d	-0.20898862
177	0xbd996d9c	-0.074916095
178	0x3e6d0ee3	0.2315021
179	0xbd4ed8a0	-0.05049956
180	0xbe59a4cf	-0.21254276
181	0x3e72def6	0.23717865
182	0xbe9d79e1	-0.3075705
183	0xbdff839a	-0.12476273
184	0xbdd69f5a	-0.10479613
185	0xbe2a0925	-0.16605051
186	0x3e889327	0.26674768
187	0xbe9c634c	-0.30544508
188	0xbe39ede8	-0.1815716
189	0x3de7b576	0.11313908
190	0x3e12f442	0.1435099
191	0xbddb2d68	-0.1070202
192	0xbd83400e	-0.06408702
193	0xbe213617	-0.1574329
194	0x3e09c159	0.13452663
195	0x3e1b4310	0.15162301
196	0xbe9e50e8	-0.30921102
197	0xbea7f349	-0.328028
198	0xbe7c3e51	-0.24633147
199	0x3ea9ac75	0.33139387
200	0x3ea95486	0.330723
201	0x3e10315d	0.1408133
202	0xbe330fe3	-0.17486529
203	0xbe995046	-0.29944056
204	0xbe8cd918	-0.2750938
205	0xbe487a16	-0.19577822
206	0x3e3c5352	0.18391159
207	0x3e3813dc	0.17976326
208	0xbe9c87db	-0.305724
209	0xbe95239f	-0.2912874
210	0xbe9d786f	-0.30755946
211	0x3e08af87	0.13348208
212	0xbd47db9f	-0.04879343
213	0x3d125f08	0.03573516
214	0x3c8f7612	0.017512355
215	0x3e74c948	0.23904908
216	0xbe926d30	-0.28598928
217	0x3d86d961	0.065844305
218	0x3e87244f	0.2639489
219	0x3d6a04be	0.05713343
220	0xbc2e5ab3	-0.010641742
221	0x3e941eb3	0.28929672
222	0xbdfeb234	-0.12436333
223	0xbe030326	-0.1279417
224	0xbe7aa085	-0.24475296
225	0xbe7ae8bf	-0.24502848
226	0x3e3a372e	0.18185112
227	0xbd4a3802	-0.04936982
228	0xbd18b96a	-0.0372862
229	0xbe3b1e84	-0.1827336
230	0xbe652ac6	-0.22379598
231	0xbe0dfb69	-0.13865437
232	0x3e9be68f	0.3044934
233	0xbe8fc09b	-0.28076634
234	0x3dc2d86e	0.09513937
235	0x3ddd403c	0.10803267
236	0xbdaed14a	-0.085360125
237	0xbd1f8b6c	-0.038951322
238	0xbe6021e9	-0.21887936
239	0xbc715da0	-0.014731795
240	0x3e336efa	0.17522803
241	0xbdf6c9e0	-0.12050223
242	0xbe196f6a	-0.14983907
243	0xbccd3e9b	-0.025054267
244	0xbe85e0f2	-0.26148182
245	0x3e747db1	0.23876072
246	0xbe984f18	-0.29747844
247	0xbe211471	-0.15730454
248	0x3dac83b7	0.0842356
249	0xbe44abf0	-0.19206214
250	0xbe0ad90a	-0.13559356
251	0x3e0bd171	0.13654114
252	0x3e89f803	0.2694703
253	0xbd5375ba	-0.051625945
254	0x3e8e2b37	0.27767345
255	0x3dcc2198	0.09967345

rnn_cell.W_ih.bias f4 [50]
0	0xbc165998	-0.009176634
1	0xbe90342f	-0.28164813
2	0xbe035fc2	-0.12829497
3	0xbe2a7472	-0.16645983
4	0xbe955213	-0.2916418
5	0x3e8f6ab0	0.28011084
6	0x3e4d289e	0.20035025
7	0xbe02fd96	-0.12792048
8	0x3e6a360b	0.22872178
9	0xbd660b55	-0.05616315
10	0x3c78d0ea	0.015186528
11	0x3e9580bc	0.2919978
12	0xbe83849a	-0.25687104
13	0xbdeb91c2	-0.115024105
14	0x3e2787b5	0.16360362
15	0x3bbe0b17	0.005799662
16	0xbe44bec9	-0.19213404
17	0xbd96987f	-0.07353305
18	0xbe8a6c5c	-0.27035797
19	0xbeac900a	-0.33703643
20	0xbe6a7d2d	-0.22899313
21	0x3e8b60db	0.27222332
22	0x3b80f492	0.003935405
23	0x3d2c5ede	0.04208266
24	0xbe9bab89	-0.30404308
25	0x3eabf2f8	0.33583808
26	0x3e568b20	0.2095151
27	0x3e9609b4	0.29304278
28	0x3e6baae0	0.23014402
29	0xbe635c0e	-0.22203085
30	0x3e29459b	0.16530459
31	0xbc5a49c1	-0.013323248
32	0xbdc18642	-0.09449436
33	0x3eb2ff5d	0.34960452
34	0xbe27c087	-0.16382037
35	0xbe2fa84b	-0.17154042
36	0xbd20c3b8	-0.039249152
37	0x3e7ca97a	0.24674025
38	0xbe97260c	-0.29521215
39	0xbcaf70ac	-0.02141603
40	0x3d807785	0.062727965
41	0x3e8f9524	0.28043473
42	0xbe3b80df	-0.18310879
43	0x3e772cb4	0.24138147
44	0x3e83c8b4	0.25739062
45	0xbe8b2304	-0.27175152
46	0x3ea63c5c	0.32467926
47	0xbe845445	-0.25845543
48	0x3dfecf83	0.124419235
49	0x3dc6881e	0.09693931

rnn_cell.W_hh.weight f4 [50, 50]
0	0xbd14367c	-0.036184773
1	0x3ce7cc41	0.028295638
2	0xbd9507e7	-0.07276898
3	0x3e0cfcb2	0.1376827
4	0xbe07767f	-0.13228796
5	0xbc7a071c	-0.015260484
6	0xbd5bd125	-0.053666253
7	0xbd9d563e	-0.07682465
8	0x3de75f1e	0.11297439
9	0x3d89dbea	0.067313984
10	0xbd027ae5	-0.031855483
11	0x3ccd655f	0.025072752
12	0xbc395abf	-0.011313139
13	0xbd54618f	-0.05185085
14	0xbdd8c352	-0.105841294
15	0xbe06ce34	-0.13164598
16	0xbc16e3ce	-0.009209586
17	0xbca02240	-0.019547582
18	0x3c0392f0	0.008030638
19	0x3db97301	0.090551384
20	0x3d777d29	0.060422096
21	0xbcf8a3f9	-0.030351626
22	0x3d55dfd9	0.05221543
23	0x3d953f84	0.07287505
24	0x3e007a24	0.12546593
25	0x3c53b467	0.012921429
26	0x3d38be4b	0.045103353
27	0x3bf92bce	0.007604099
28	0x3d7f33bb	0.062305193
29	0xbd9c0d43	-0.07619717
30	0xbd99c5b5	-0.07508413
31	0xbdb6d15a	-0.089266494
32	0xba4634ae	-0.00075609505
33	0x3d596ae2	0.053080447
34	0x3d887f53	0.0666491
35	0xbd69cd88	-0.057080775
36	0x3ded786a	0.11595233
37	0xbddf5b1e	-0.10906051
38	0xbdbf187b	-0.09330841
39	0x3d727257	0.059191074
40	0x3ce62630	0.028094381
41	0xbdc7aacb	-0.09749373
42	0x3bd38cb0	0.0064559802
43	0x3d0d9876	0.034569226
44	0xbc511657	-0.012761674
45	0xbc90f755	-0.017696062
46	0xbd8fc21e	-0.07019447
47	0x3e0b0652	0.1357663
48	0x3e16dfb2	0.1473377
49	0x3dadf180	0.08493328
50	0x3d36a7a6	0.044593476
51	0x3d9847e8	0.0743559
52	0x3d66a0c0	0.056305647
53	0x3cb31b18	0.021863505
54	0xbd042ad9	-0.032267425
55	0x3cd404a1	0.025881113
56	0xbd6b402c	-0.057434246
57	0xbd32f113	-0.043686938
58	0x3c8a79c9	0.016903775
59	0x3ce38fb1	0.027778478
60	0xbe1216f2	-0.14266565
61	0x3cf167c9	0.029468434
62	0xbe1ae147	-0.15124999
63	0xbd9fc0b2	-0.078004256
64	0x3dac840a	0.08423622
65	0x3c84fedc	0.016234808
66	0x3df9886e	0.12184225
67	0x3dd8e3de	0.10590337
68	0x3d281639	0.04103682
69	0x3d493eb6	0.04913207
70	0xbdc60277	-0.09668439
71	0x3de2da31	0.11076773
72	0xbd84e7d1	-0.06489528
73	0x3df75724	0.12077168
74	0x3dd0341c	0.10166189
75	0xbe08853a	-0.13332072
76	0xbe015350	-0.12629437
77	0xbd19c17b	-0.037538033
78	0xbd8a299c	-0.067462176
79	0xbe09eb3a	-0.13468638
80	0x3d895152	0.06704964
81	0x3cdefa40	0.027218938
82	0xbd99eab3	-0.075154684
83	0xbd4df884	-0.05028583
84	0x3d8199ae	0.0632814
85	0x3cabd3ae	0.02097496
86	0x3e063903	0.13107686
87	0xbc4af000	-0.012386322
88	0xbddef6df	-0.10886931
89	0x3b84c13e	0.0040513566
90	0xbbf29679	-0.0074031916
91	0x3de86b5d	0.11348603
92	0x3d877693	0.06614413
93	0x3d30389b	0.043022733
94	0x3e155b91	0.14585711
95	0x3dd0834b	0.10181292
96	0xbc74484a	-0.014909813
97	0xbd8bce57	-0.068264656
98	0x3e180167	0.14844285
99	0xbdbf46a7	-0.09339648
100	0xbdcfb293	-0.10141482
101	0x3d210be9	0.039318
102	0xbcfa3d18	-0.03054671
103	0x3cda2e95	0.02663354
104	0x3db781b5	0.089602865
105	0xbe06b84c	-0.13156241
106	0x3d3a7e01	0.045530323
107	0xbdab426f	-0.083622806
108	0xbc9d87b2	-0.019229744
109	0x3ccc7f20	0.024962962
110	0x3df27f09	0.11840636
111	0xbb37886b	-0.0028004895
112	0xbd20690f	-0.03916269
113	0x3dab03be	0.08350323
114	0x3dbb80c8	0.091554224
115	0x3db0e42a	0.08637269
116	0x3e09095c	0.13382477
117	0xbd913edf	-0.0709207
118	0xbd4d099c	-0.050057992
119	0x3dd1c47b	0.10242554
120	0xbdcdaa09	-0.10042197
121	0x3e07d72c	0.13265675
122	0x3e06fe32	0.13182905
123	0x3aa612ec	0.0012670434
124	0x3dc2522a	0.09488328
125	0x3db9690f	0.090532415
126	0x3d88a5a1	0.06672216
127	0x3de4ece8	0.11177999
128	0x3df72daa	0.120692566
129	0xbcdf2dd7	-0.027243538
130	0x3d9c548d	0.07633314
131	0x3de2cd38	0.110742986
132	0xbd46df49	-0.048552785
133	0x3c8abe0e	0.016936328
134	0xbe011a87	-0.12607776
135	0x3e1ca7e8	0.15298426
136	0xbd236f79	-0.03990123
137	0xbda5d995	-0.08098141
138	0x3d74b4ea	0.059742846
139	0x3d8b1418	0.06790942
140	0x3d9abfca	0.07556112
141	0xbd4f518d	-0.050614882
142	0xbb4627ef	-0.0030236205
143	0x3dc27677	0.094952516
144	0x3dc21a3e	0.094776616
145	0xbe0244f2	-0.12721613
146	0xbbfce594	-0.0077177975
147	0x3daa9fb0	0.08331239
148	0xbd85de47	-0.06536537
149	0x3cee2db2	0.029074524
150	0xbd7d9757	-0.061911907
151	0xbd6181a9	-0.055055294
152	0x3d3818b3	0.04494543
153	0x3da24c42	0.07924701
154	0xbc8e6a3f	-0.017384646
155	0x3d68e389	0.05685762
156	0xbde3dc62	-0.11126019
157	0xbdd93341	-0.10605479
158	0x3cd6a9a5	0.02620394
159	0x3d049262	0.032366164
160	0x3d226d8b	0.03965525
161	0x3e0a6c05	0.13517769
162	0x3dd5d672	0.10441293
163	0xbd51cd45	-0.05122115
164	0xbe0b3975	-0.13596137
165	0x3d9dd1e7	0.07706051
166	0xbdcc1f23	-0.09966876
167	0xbda27ef6	-0.07934372
168	0xbd2ed133	-0.042679977
169	0xbdb09e5e	-0.08623956
170	0x3d40e23d	0.047090758
171	0xbdf07e07	-0.11742788
172	0xbd87ca4e	-0.066303834
173	0xbddaa25c	-0.10675499
174	0x3d9bd41b	0.07608815
175	0xbd2a7f77	-0.041625466
176	0x3d5b2e1a	0.053510763
177	0x3dd3f680	0.103497505
178	0x3db64edd	0.08901761
179	0xbd9cd042	-0.076569095
180	0x3dc81aa3	0.097707056
181	0xbd2d084f	-0.04224425
182	0xbe10520d	-0.140938
183	0xbdf91561	-0.12162281
184	0xbdf8a5ff	-0.12141036
185	0x3e394bfb	0.1809539
186	0xbd646db4	-0.055768684
187	0xbdc9c9b8	-0.09852928
188	0xbcff096b	-0.03113242
189	0x3de151d1	0.11001933
190	0xbd575207	-0.05256846
191	0x3d206014	0.039154127
192	0xbd9fe4e7	-0.078073315
193	0x3e01334e	0.12617227
194	0xbd30ff46	-0.043212198
195	0x3d513d33	0.051083755
196	0x3dd714d9	0.10502023
197	0x3de02b89	0.10945804
198	0x3d737df7	0.0594463
199	0xbdb8f78e	-0.09031592
200	0x3d9d7812	0.07688917
201	0x3dbdf4ac	0.09275183
202	0x3df9408e	0.12170516
203	0xbdd19a32	-0.102344885
204	0x3db51658	0.08842152
205	0xbc4ec0b2	-0.012619184
206	0x3cdb9882	0.02680612
207	0xbe018312	-0.12647656
208	0x3dcc9c39	0.099907346
209	0x3c042a92	0.00806679
210	0x3d8cffe2	0.06884743
211	0x3cace131	0.021103473
212	0xbda5f830	-0.08103979
213	0xbd954033	-0.07287636
214	0x3d960ab6	0.07326262
215	0xbdd632bb	-0.10458895
216	0x3db3356c	0.08750424
217	0xbdcc94a6	-0.0998929
218	0xbdf2df00	-0.1185894
219	0xbcf4b203	-0.029870039
220	0x3dcc20d3	0.09967198
221	0x3c98017f	0.0185554
222	0x3d74af0b	0.059737246
223	0x3d5dff8f	0.054198798
224	0xbde43fdd	-0.111449935
225	0x3db1e379	0.08685965
226	0xbd9ab020	-0.075531244
227	0xbc8c67bf	-0.017139314
228	0x3de6b2ff	0.112646095
229	0x3d8d29ad	0.06892715
230	0xba57d251	-0.00082329387
231	0xbcd2bee1	-0.025725784
232	0x3d81aed0	0.06332171
233	0x3d909aa7	0.070607476
234	0xbdd87617	-0.10569399
235	0xbcfa56d0	-0.030558974
236	0xbd9cb8ed	-0.07652459
237	0xbd515b94	-0.051112726
238	0x3dcec7f9	0.100967355
239	0xbbcb687f	-0.0062075253
240	0xbd167657	-0.03673395
241	0xbdbe9000	-0.093048096
242	0x3d949150	0.07254279
243	0x3e09da54	0.13462192
244	0x3be73331	0.007055663
245	0xbc3e7972	-0.0116256345
246	0xbd49bc14	-0.04925163
247	0x3d3b2b76	0.045695744
248	0xbd0a8dcb	-0.03382663
249	0xbc6014c8	-0.01367683
250	0x3dc79b88	0.09746462
251	0x3d1eea44	0.03879763
252	0xbb07e4e2	-0.002073579
253	0xbd86f60b	-0.06589898
254	0x3dac1705	0.08402828
255	0xbd89de57	-0.06731861

rnn_cell.W_hh.bias f4 [50]
0	0x3dbdc02b	0.09265169
1	0xbd9d5427	-0.076820664
2	0xbdc9d535	-0.09855119
3	0x3e05b462	0.13057092
4	0xbd03b493	-0.03215463
5	0xbd796b06	-0.06089308
6	0x3d07296b	0.032998484
7	0x3cbc4942	0.02298415
8	0x3bad593a	0.0052901777
9	0xbd77d615	-0.0605069
10	0xbcaf8de9	-0.021429973
11	0x3d3e9494	0.046528414
12	0x3d58b12f	0.05290335
13	0xbdcd39c3	-0.10020783
14	0xbc919e1d	-0.01777559
15	0x3df0ab4f	0.117514245
16	0x3e0763d2	0.13221672
17	0x3ce02186	0.027359735
18	0x3d5f82f8	0.05456826
19	0xbdb3cb09	-0.0877896
20	0x3db9baf8	0.090688646
21	0xbd8c8888	-0.06861979
22	0x3e137726	0.1440092
23	0x3dd7c8fe	0.10536383
24	0xbd0cbeaf	-0.034361538
25	0xbda8f88c	-0.082505316
26	0x3d1243b0	0.035709083
27	0x3db6a122	0.089174524
28	0x3dddbd3a	0.10827108
29	0xbe089baa	-0.13340631
30	0x3ddcf86d	0.10789571
31	0xbdb05e0f	-0.0861169
32	0xbd940be8	-0.072288334
33	0x3dcd8dcd	0.10036812
34	0xbd8a71fd	-0.06760023
35	0xbe0bbb85	-0.13645752
36	0xbdd99f36	-0.1062607
37	0x3e15ba99	0.14621963
38	0xbde4ffec	-0.11181626
39	0xbbd76b8f	-0.0065741013
40	0xbe09cba5	-0.1345659
41	0xbd8a20d2	-0.06744541
42	0x3d56d705	0.052451152
43	0xbdc2d723	-0.0951369
44	0xbe0ba279	-0.13636197
45	0xbda5b491	-0.08091081
46	0xbd92e45d	-0.07172463
47	0xbcdb906a	-0.02680226
48	0x3d47c3e0	0.048770785
49	0xbddefb34	-0.10887757

rnn_cell.fc.weight f4 [1, 50]
0	0x3dc55191	0.09634698
1	0x3daa36a4	0.08311203
2	0x3e052e1f	0.13005875
3	0x3be92f77	0.007116254
4	0x3dc5d0fd	0.09659002
5	0xbd1c3844	-0.038139597
6	0x3d9a2c9a	0.07528038
7	0x3d6f957c	0.05849217
8	0xbdde2ce2	-0.108484045
9	0xbe0351f8	-0.12824237
10	0x3de90523	0.11377933
11	0xbd0de2f2	-0.03464026
12	0xbce0751b	-0.02739959
13	0x3d2208f8	0.039559335
14	0xbdf25bbe	-0.11833905
15	0xbc936549	-0.017992632
16	0x3c72e3c1	0.014824809
17	0xbd153e6c	-0.036436483
18	0x3d9b6f45	0.07589582
19	0xbd025eea	-0.0318288
20	0x3d74f6c9	0.059805665
21	0x3d6b3245	0.057420988
22	0xbd0367ae	-0.0320813
23	0x3d39d54c	0.04536943
24	0x3cf3abf6	0.029745083
25	0x3bcb8a61	0.0062115644
26	0xbd2ce386	-0.04220917
27	0x3d174ab2	0.03693647
28	0x3d9cb34d	0.076513864
29	0x3d8af07a	0.067841485
30	0xbd1a0316	-0.0376006
31	0xbd3ece2c	-0.04658334
32	0x3d8354d0	0.06412661
33	0x3d72ec81	0.05930758
34	0x3d3824e5	0.04495706
35	0x3d3ab70e	0.04558473
36	0xbe04383e	-0.1291208
37	0x3d48e0e8	0.049042612
38	0x3beceae6	0.0072301505
39	0xbd935119	-0.071932025
40	0xbd2a2c46	-0.04154613
41	0x3da71a9f	0.081593744
42	0xbdd19864	-0.10234144
43	0xbd44c456	-0.048038803
44	0x3cdbe0b7	0.02684055
45	0x3dae98f7	0.085252695
46	0xbcce57a5	-0.025188277
47	0x3ba9681e	0.0051698824
48	0xbd0f7a94	-0.03502901
49	0xbdf780b4	-0.12085095
